model.pth (torch, 16799 bytes, 4 tensors)

linear1.weight f4 [256, 11]
0.11224934 0.15007864 0.12628393 -0.19776359 -0.25027204 -0.25533906 -0.15420213 -0.26363814
-0.09979702 -0.083873354 -0.20186068 0.25231722 0.18822171 -0.5356538 -0.37369975 0.08411643
0.073759474 -0.2570178 0.25813508 -0.6789529 0.19228609 -0.2449974 0.101465814 -0.03167809
-0.066954814 -0.36400622 -0.4816751 0.14872603 0.37931287 0.20778976 0.35290423 -0.64776534
-0.49646336 0.47867307 0.11636142 -0.39652464 -0.041646387 0.024372248 0.25881496 0.013279876
0.221067 -0.088855 -0.13607779 -0.035596393 0.13098831 -0.094954945 0.02913177 0.048336685
-0.5347194 0.50673586 -0.58562905 -0.5230642 -0.6231902 0.4295533 -0.5902038 -0.18476132
-0.19528492 -0.39295465 -0.33289453 0.45985073 -0.12532169 -0.21055621 -0.48978794 0.3178138
-0.09519261 -0.20932159 0.14240097 0.07349648 0.16358246 -0.19918971 0.3397859 0.2009648
-0.58224076 -0.4538766 0.3990144 -0.45093364 -0.29194093 0.5722327 -0.19118442 0.14959286
0.35560727 -0.31699985 -0.065144874 0.15018803 -0.28449187 0.4897754 0.30329585 -0.13842905
-0.14581105 0.2419824 0.30176058 0.11706833 -0.08341412 0.33227372 0.07488122 -0.08792428
0.023389637 -0.17958945 0.1532706 -0.25105888 -0.4686733 0.3592557 0.19480859 0.3107987
0.20774943 0.19447067 -0.23215443 -0.2325135 -0.359693 0.03139773 0.14099464 -0.042208992
-0.10937097 0.088693015 -0.28206813 0.52137905 -0.31839934 -0.44489256 -0.117752135 0.28414458
-0.5499372 -0.26000258 -0.21318893 -0.1658456 -0.2718768 0.2618269 -0.2952407 -0.30271882
-0.19345337 0.35862607 -0.2178692 -0.10451008 -0.019534605 -0.4676837 -0.4987139 0.06396495
0.25507635 -0.17109807 0.3985443 -0.0029426573 0.0687371 -0.39377406 0.1428856 -0.13124736
-0.34977913 0.120721616 0.3736292 0.17989825 -0.06295035 -0.4098714 0.14173377 0.2363082
-0.5145279 -0.41324 -0.04430595 -0.06660043 0.17365557 0.21080047 0.052010745 -0.07578349
-0.21572182 -0.17648144 -0.24991524 -0.1991332 -0.174643 -0.07272597 0.22006685 -0.029139595
0.22775373 0.15809925 -0.48178756 -0.33449247 0.123075165 0.42414492 -0.44871235 -0.2213375
0.21506672 0.46132118 -0.06852245 -0.098371714 -0.35527158 -0.12095373 -0.020507567 -0.054842826
0.23968989 0.17891584 0.031695247 0.12772337 -0.10334529 0.33739436 -0.17174242 -0.04078417
0.16332608 -0.17063974 0.40944827 0.41455248 0.1433904 0.4300296 0.113455735 -0.35477966
-0.35799608 -0.2611326 -0.17128113 -0.020114323 -0.37038404 0.056909416 -0.12560771 0.03436374
0.31114936 -0.23830722 -0.1064576 0.04381426 -0.4614951 -0.39251664 0.3124091 0.07405951
-0.5843763 -0.35750753 0.19649497 0.32124397 -0.6085948 -0.14420901 0.20583712 0.06258057
0.15218326 0.04898578 -0.25822508 -0.04238849 0.08770914 0.020835575 -0.34049907 -0.091704495
0.19059214 -0.31277254 0.10506461 0.22619914 -0.25074518 -0.30005792 0.101306304 0.25281835
-0.31591654 -0.31950763 -0.17174111 -0.45451424 -0.25440085 0.31776077 0.011811379 0.42818964
-0.29709318 0.0060314434 0.10282435 -0.064876065 -0.8139735 -0.20101976 -0.08206119 -0.093529895
00000000: fbe2 e53d 37ae 193e 9350 013e 8a82 4abe
00000010: a823 80be cdbb 82be 2ae7 1dbe 94fb 86be
00000020: 6162 ccbd cbc5 abbd 91b4 4ebe b92f 813e
00000030: 31bd 403e 9c20 09bf 9355 bfbe 3c45 ac3d
00000040: 350f 973d d697 83be 482a 843e dbcf 2dbf
00000050: a5e6 443e 99e0 7abe 4fcd cf3d e3c0 01bd
00000060: 9b1f 89bd 065f babe 1e9e f6be a34b 183e
00000070: 4c35 c23e d7c6 543e ddaf b43e f3d3 25bf
00000080: 7230 febe a314 f53e e54e ee3d 4705 cbbe
00000090: 6795 2abd 4fa8 c73c 6583 843e d693 593c
000000a0: 635f 623e 9cf9 b5bd fa57 0bbe 86cd 11bd
000000b0: cd21 063e bd77 c2bd c0a5 ee3c b0fc 453d
000000c0: 5fe3 08bf 71b9 013f c9eb 15bf 89e7 05bf
000000d0: 6589 1fbf 69ee db3e 9917 17bf 1232 3dbe
000000e0: c5f8 47be 5a31 c9be 2771 aabe 8e71 eb3e
000000f0: 5454 00be 0c9c 57be 7cc5 fabe 7eb8 a23e
00000100: 58f4 c2bd 6658 56be 8fd1 113e 5385 963d
00000110: 2982 273e 63f8 4bbe 6bf8 ad3e b7c9 4d3e
00000120: bb0d 15bf 8462 e8be 9e4b cc3e c6e0 e6be
00000130: 4879 95be d87d 123f d9c5 43be df2e 193e
00000140: 2812 b63e ce4d a2be ad6a 85bd e4ca 193e
00000150: eba8 91be d7c3 fa3e 9849 9b3e 58c0 0dbe
00000160: 7e4f 15be 3cca 773e 5d80 9a3e 85c1 ef3d
00000170: 06d5 aabd c81f aa3e 535b 993d a511 b4bd
00000180: a09b bf3c 4ce6 37be f8f2 1c3e ca8a 80be
00000190: f2f5 efbe 5df0 b73e e77b 473e 0221 9f3e
000001a0: 44bc 543e 5223 473e e4b9 6dbe 0518 6ebe
000001b0: ae29 b8be e89a 003d e660 103e 56e3 2cbd
000001c0: e3fd dfbd afa4 b53d 3c6b 90be 1979 053f
000001d0: 3d05 a3be f5c8 e3be 0828 f1bd 667b 913e
000001e0: afc8 0cbf 0f1f 85be 334e 5abe 6ed3 29be
000001f0: 7033 8bbe 2d0e 863e ca29 97be f6fd 9abe
00000200: a418 46be d69d b73e 1b19 5fbe 6109 d6bd
00000210: 0907 a0bc 3d74 efbe 6e57 ffbe 0e00 833d
00000220: 5e99 823e 5534 2fbe 000e cc3e 99d9 40bb
00000230: 09c6 8c3d c19c c9be 9a50 123e b565 06be
00000240: 4016 b3be e53c f73d 544c bf3e 3f37 383e
00000250: 1dec 80bd aada d1be a822 113e c7fa 713e
00000260: 1ab8 03bf 3194 d3be 287a 35bd ce65 88bd
00000270: c4d2 313e 14dc 573e 3809 553d 6034 9bbd
00000280: 2ee6 5cbe 8db7 34be c8e9 7fbe 93e9 4bbe
00000290: 9dd5 32be 5af1 94bd 3459 613e 29b6 eebc
000002a0: 4638 693e c5e4 213e dcac f6be 9942 abbe
000002b0: d50e fc3d 8629 d93e a0bd e5be 4ca6 62be
000002c0: 733a 5c3e 4a32 ec3e 8055 8cbd 1c77 c9bd
000002d0: 28e6 b5be 97b6 f7bd 7cff a7bc dfa2 60bd
000002e0: 4471 753e b735 373e e0d2 013d eac9 023e
000002f0: b2a6 d3bd f4be ac3e 3fdd 2fbe 4d0d 27bd
00000300: f43e 273e 2fbc 2ebe 34a3 d13e 3940 d43e
00000310: efd4 123e d72c dc3e 7b5b e83d aea5 b5be
00000320: 434b b7be 2cb3 85be 5264 2fbe cbc6 a4bc
00000330: faa2 bdbe d919 693d 4f9f 00be fec0 0c3d
00000340: f84e 9f3e cf06 74be 7106 dabd 9576 333d
00000350: 1649 ecbe f1f7 c8be 16f4 9f3e 83ac 973d
00000360: af99 15bf 3a0b b7be fa35 493e 177a a43e
00000370: decc 1bbf 87ab 13be f7c6 523e 3e2a 803d
00000380: eed5 1b3e 50a5 483d 1436 84be 8e9f 2dbd
00000390: d9a0 b33d 5eaf aa3c e555 aebe 91cf bbbd
000003a0: 962a 433e b923 a0be 1d2c d73d bfa0 673e
000003b0: ac61 80be 31a1 99be ae79 cf3d 6871 813e
000003c0: d0bf a1be 8196 a3be e7dc 2fbe 17b6 e8be
000003d0: d440 82be 8ab1 a23e 8484 413c ac3b db3e
000003e0: 991c 98be 6aa3 c53b 9395 d23d bedd 84bd
000003f0: 9160 50bf 20d8 4dbe b20f a8bd 9a8c bfbd

linear1.bias f4 [256]
-0.08231702 0.04992261 0.12099084 -0.28390846 0.0030152313 -0.031342037 -0.06408352 -0.14234687
-0.3263371 0.7255171 0.031994343 -0.10643344 -0.06159934 0.1361635 -0.25686616 -0.0017629383
-0.19090346 -0.29532257 -0.13039601 0.3345735 0.22375438 -0.055355016 0.29838887 -0.18562378
0.23223136 -0.44808266 -0.19337465 -0.43014127 0.06912147 -0.19695975 -0.15107688 0.00018426498
-0.08526169 -0.2991355 0.12772267 -0.23129317 -0.3434261 -0.12225272 -0.23977779 -0.2076239
-0.09034435 -0.29188305 0.42042142 -0.07731596 0.15046844 0.2962831 -0.14965717 0.10853857
-0.26524875 -0.037431818 0.5056867 -0.24416122 -0.0042758486 0.0044407328 0.21021889 -0.30154085
-0.22518358 -0.1163032 0.037957653 0.32245952 -0.10669707 -0.30934605 0.1059148 0.51028055
0.26079947 -0.18443267 0.20726788 -0.2599643 -0.29312563 0.004670534 -0.041944724 0.4283044
-0.38562918 -0.19129017 -0.27690548 -0.15458685 0.15046687 -0.059976555 -0.14224654 -0.33158636
-0.24135178 0.0060684797 0.12101274 -0.06972688 -0.0012787309 0.2977138 0.087612405 -0.3051693
-0.13903543 0.44897306 -0.55752456 0.09806161 -0.06852226 -0.24885422 -0.44422284 -0.11437925
-0.015646478 -0.29313818 -0.060929548 0.22770973 -0.20787127 -0.03189917 -0.3814244 0.008493798
-0.2119609 0.14208879 -0.2971884 -0.40886313 0.24491352 -0.050096698 0.035096105 0.5433493
0.20477843 -0.20309658 0.40485644 0.70242745 -0.20934348 -0.0937591 -0.10148077 0.43137196
-0.10189851 -0.17915307 -0.30724654 -0.16770825 -0.14747676 0.15974827 0.16497615 -0.06677973
-0.34089893 0.4676357 -0.3319901 -0.13416687 0.08740563 -0.010513724 -0.0067023714 -0.10856515
-0.27543518 0.04491893 1.1766781 -0.24944654 -0.07433175 0.4331828 0.40827608 -0.29643726
-0.0023842657 0.037718356 -0.14490904 -0.38621277 0.14331828 -0.333302 -0.122563325 -0.023838136
0.07809121 0.23447949 -0.077029034 -0.06135462 -0.24556264 0.001999727 0.14344855 0.00240457
-0.3236724 -0.100714706 -0.08974214 -0.16968834 0.30773836 -0.0678454 -0.1760559 -0.30120817
-0.1122801 0.06854656 0.038073976 -0.24496503 -0.176854 -0.22504486 -0.06619057 -0.11093909
-0.10093081 -0.2921504 0.09725899 -0.06905778 -0.20322855 0.10028599 -0.30352753 -0.38674513
-0.1520792 -0.3669168 0.062197663 -0.18288073 -0.10168582 -0.4189266 -0.15460852 -0.016783543
0.30515954 0.021639505 0.3535887 -0.07271307 -0.22083639 -0.2850185 -0.22413102 0.064374134
-0.21724787 0.14947984 -0.17604737 -0.074980736 -0.32294732 -0.11603516 0.2491991 0.044325978
0.028788012 0.66121304 -0.14802168 0.052337375 -0.15460455 -0.12535703 -0.20206623 -0.32774857
-0.28495356 -0.24357674 0.038778022 -0.26054502 -0.0691494 -0.056342028 0.3418242 0.30776632
-0.22753051 0.6592952 0.3375613 0.4335679 -0.13711385 0.47479993 -0.3252675 -0.25926033
-0.2573678 -0.18687505 -0.13649009 -0.21573971 0.2196911 -0.07401187 -0.22489448 0.06862513
-0.22721528 -0.04227551 -0.3511198 0.078243434 0.16934703 -0.3129247 -0.12268328 -0.23465815
-0.1469447 0.3977831 -0.26284528 -0.18321058 0.331172 -0.31315896 -0.17955862 0.46243486
00000000: d395 a8bd a77b 4c3d 0cca f73d 735c 91be
00000010: 309b 453b 8260 00bd 383e 83bd 61c3 11be
00000020: a815 a7be 7dbb 393f 800c 033d c7f9 d9bd
00000030: 974f 7cbd 726e 0b3e f683 83be 6512 e7ba
00000040: 327c 43be 8534 97be 8886 05be 384d ab3e
00000050: de1f 653e f1bb 62bd 6dc6 983e 2914 3ebe
00000060: 0fce 6d3e 176b e5be 0104 46be 7a3b dcbe
00000070: 8f8f 8d3d d1af 49be e6b3 1abe 4137 4139
00000080: ae9d aebd 4a28 99be bbc9 023e 1ed8 6cbe
00000090: 8cd5 afbe a25f fabd 4f88 75be 5c9b 54be
000000a0: 7506 b9bd b271 95be 7a41 d73e d457 9ebd
000000b0: 6614 1a3e 6bb2 973e bb3f 19be 7849 de3d
000000c0: afce 87be 1b52 19bd af74 013f 6605 7abe
000000d0: 6b1c 8cbb 9183 913b 9f43 573e 9063 9abe
000000e0: 8696 66be 5f30 eebd 7c79 1b3d 6a19 a53e
000000f0: fe83 dabd 9b62 9ebe dce9 d83d bfa1 023f
00000100: 8287 853e ebdb 3cbe 083e 543e 0a1a 85be
00000110: 9014 96be 470b 993b 3bce 2bbd b74a db3e
00000120: 3071 c5be 92e1 43be 8ec6 8dbe 044c 1ebe
00000130: fd13 1a3e faa9 75bd 14a9 11be b0c5 a9be
00000140: ec24 77be 19da c63b 87d5 f73d f7cc 8ebd
00000150: 179b a7ba f16d 983e 226e b33d 273f 9cbe
00000160: 4e5f 0ebe ccdf e53e eeb9 0ebf 86d4 c83d
00000170: 6655 8cbd a4d3 7ebe 2d71 e3be ab3f eabd
00000180: 0b2d 80bc 3516 96be 4391 79bd bd2c 693e
00000190: 35dc 54be b4a8 02bd 0f4a c3be 9229 0b3c
000001a0: 470c 59be b97f 113e 1429 98be 8256 d1be
000001b0: 9cca 7a3e 3232 4dbd efc0 0f3d f118 0b3f
000001c0: 70b1 513e 8df8 4fbe 5849 cf3e 49d2 333f
000001d0: 235e 56be c504 c0bd 26d5 cfbd c9dc dc3e
000001e0: 2ab0 d0bd e773 37be 6b4f 9dbe b6bb 2bbe
000001f0: 2604 17be 0d95 233e 82ef 283e d0c3 88bd
00000200: 4e8a aebe f26d ef3e 9bfa a9be 0a63 09be
00000210: b901 b33d c141 2cbc 919f dbbb 6857 debd
00000220: d705 8dbe e9fc 373d 639d 963f ea6e 7fbe
00000230: 3f3b 98bd 23ca dd3e 9009 d13e a0c6 97be
00000240: 5741 1cbb 907e 1a3d 0963 14be aebd c5be
00000250: 07c2 123e 8fa6 aabe 7b02 fbbd 3248 c3bc
00000260: 49ee 9f3d 641b 703e 66c1 9dbd fb4e 7bbd
00000270: c674 7bbe da0d 033b 2de4 123e fe95 1d3b
00000280: 64b8 a5be 8343 cebd baca b7bd c8c2 2dbe
00000290: e28f 9d3e 87f2 8abd ff47 34be f537 9abe
000002a0: 1cf3 e5bd 2462 8c3d 75f3 1b3d 1dd8 7abe
000002b0: 3719 35be 2972 66be ec8e 87bd 0934 e3bd
000002c0: d0b4 cebd bd94 95be b92f c73d 2a6e 8dbd
000002d0: 251b 50be be62 cd3d f667 9bbe 7503 c6be
000002e0: a6ba 1bbe 85dc bbbe fac2 7e3d 1645 3bbe
000002f0: a840 d0bd 8c7d d6be b251 1ebe a47d 89bc
00000300: df3d 9c3e 5545 b13c 9409 b53e 97ea 94bd
00000310: ef22 62be f2ed 91be 9a82 65be 96d6 833d
00000320: 3a76 5ebe 3e11 193e c345 34be 808f 99bd
00000330: 5a59 a5be d8a3 edbd 0d2e 7f3e 288f 353d
00000340: d6d4 eb3c 4245 293f ff92 17be b75f 563d
00000350: a850 1ebe 985d 00be 73ea 4ebe a9ce a7be
00000360: 6fe5 91be 2e6c 79be b4d5 1e3d 2866 85be
00000370: 339e 8dbd e6c6 66bd 9503 af3e 8c93 9d3e
00000380: c2fd 68be 92c7 283f d6d4 ac3e 9dfc dd3e
00000390: 9367 0cbe fa18 f33e 7689 a6be c5bd 84be
000003a0: b6c5 83be 2c5c 3fbe 0fc4 0bbe dfea 5cbe
000003b0: b4f6 603e 8993 97bd bd4a 66be 558b 8c3d
000003c0: 1fab 68be 1629 2dbd f9c5 b3be 183e a03d
000003d0: 4f69 2d3e ab37 a0be 5f41 fbbd 3a4a 70be
000003e0: ac78 16be 3aaa cb3e a893 86be 8e9b 3bbe
000003f0: 608f a93e 5f56 a0be 37de 37be 43c4 ec3e

linear2.weight f4 [3, 256]
-0.012848841 0.029219206 -0.36901116 -0.008974274 0.44274196 0.32100853 0.25731665 -0.481077
-0.030370861 0.34993106 0.37773347 0.26844442 0.12085798 0.33112106 0.016046003 0.27306697
-0.080484204 -0.29593098 -0.12751178 0.37841934 0.10196941 0.13859801 0.3212778 0.053303983
0.24959171 -0.08588095 0.16864417 -0.0022103102 -0.26136202 -0.06769797 -0.057629958 0.14246
0.120493375 -0.073018916 0.19036219 -0.13318013 0.0327762 -0.048194434 -0.24575016 -0.06871533
-0.026459021 0.04158455 0.106918305 -0.15971503 0.39253858 0.21031572 -0.5627069 -0.30538476
-0.046420593 -0.01351254 0.3820403 -0.23402683 -0.4352178 -0.41398412 0.19398104 -0.17221244
-0.011888646 -0.5181385 0.23775993 0.25914097 -0.09930493 -0.2667763 0.45054275 0.14915511
0.48369095 -0.056299742 0.04789236 -0.13600531 -0.070264526 0.14054711 -0.08983539 0.111730844
0.0013620664 -0.094587825 -0.05256334 0.074420035 0.14220604 0.0058353525 -0.12184271 0.0051184758
-0.026673445 -0.27820432 0.22666165 0.095010884 0.033366732 0.5415595 0.12078663 -0.19701505
-0.25814605 0.24793588 -0.1650805 0.31830996 0.45602518 -0.024424225 -0.37945396 0.002583458
-0.04538624 0.047741957 0.028330414 0.25626117 -0.07278878 -0.5737378 0.05331357 -0.0023652215
-0.046408992 -0.3360621 -0.027475702 -0.33525303 0.16462077 0.03996019 -0.031572327 0.280836
0.06901813 -0.018367328 0.5303442 0.29289526 -0.33399934 -0.06308018 -0.062343266 0.1616731
0.021920687 0.13865568 0.0035601857 -0.12853889 -0.1254515 0.32345846 0.032079365 -0.30239323
-0.17352091 0.4604339 0.000536195 -0.16247377 -0.015945775 -0.046315197 0.009138149 -0.08681751
-0.2890749 0.26849777 0.2962823 -0.07462335 -0.6602625 0.18404141 0.1530827 -0.039799374
0.3217641 -0.6793746 -0.35767108 -0.0809571 0.038340844 -0.2523532 0.005251256 0.008644307
0.23070586 -0.2033025 -0.4052234 -0.121124305 -0.37244594 0.04713259 0.47242206 -0.16310838
-0.20447803 -0.03526667 -0.09946567 -0.026900169 0.29176736 -0.02115931 0.029663512 0.036532573
-0.07104975 0.4592746 -0.21066594 -0.038033832 -0.51253045 -0.4305172 -0.009611279 -0.38384938
-0.6523165 -0.06135042 0.3436927 -0.24085511 -0.12945674 0.19013806 -0.22432399 -0.1761329
-0.0145379035 -0.18887119 0.2781729 -0.07085094 0.37698317 0.0016732217 -0.5056865 0.18120426
0.2613693 0.08170615 0.20803389 -0.24242961 -0.47202337 -0.27909538 -0.040483117 0.03182473
-0.14576423 0.05913992 0.018202558 -0.002281518 -0.081350535 0.0807534 0.35222557 0.7904726
0.01017789 0.29740718 -0.21507645 0.029186053 0.21441017 -0.14076333 -0.4253198 -0.1840734
-0.12522395 -0.013571518 0.14067093 -0.025772594 -0.059523117 -0.019991266 0.20595707 0.4991302
-0.33231732 0.19408625 0.11643 0.34050015 -0.25285977 0.25616103 -0.05076418 0.08246992
-0.18905093 -0.016562823 -0.17707935 0.0073448913 0.47917846 -0.40041843 -0.22237523 -0.043827716
-0.07907871 0.009089504 -0.21971011 -0.017714938 0.114620246 -0.049063098 -0.45122334 -0.03681953
0.3633385 0.5359021 -0.45515868 0.039869048 0.24053514 0.15362829 0.0043603578 0.22350465
00000000: f283 52bc 1e5d ef3c 08ef bcbe d508 13bc
00000010: 13af e23e 3b5b a43e 02bf 833e b94f f6be
00000020: 50cc f8bc 2a2a b33e 4866 c13e 8c71 893e
00000030: 6384 f73d b388 a93e e872 833c 6fcf 8b3e
00000040: e7d4 a4bd 4484 97be 7392 02be 2ec0 c13e
00000050: 57d5 d03d a3ec 0d3e 867e a43e 4755 5a3d
00000060: f894 7f3e 5ae2 afbd 0fb1 2c3e dada 10bb
00000070: 3ed1 85be 3ca5 8abd 640d 6cbd 09e1 113e
00000080: 3bc5 f63d f18a 95bd 4eee 423e 5f60 08be
00000090: 5640 063d 8767 45bd eea5 7bbe 9fba 8cbd
000000a0: 97c0 d8bc 9054 2a3d fcf7 da3d 568c 23be
000000b0: d1fa c83e 015d 573e 8f0d 10bf 645b 9cbe
000000c0: 8523 3ebd b363 5dbc c99a c33e bba4 6fbe
000000d0: ded4 debe baf5 d3be f7a2 463e 7558 30be
000000e0: 98c8 42bc baa4 04bf 5777 733e 20ae 843e
000000f0: 6260 cbbd e796 88be 8aad e63e 1ebc 183e
00000100: 57a6 f73e 8f9a 66bd c72a 443d fa44 0bbe
00000110: d9e6 8fbd 95eb 0f3e 9efb b7bd 24d3 e43d
00000120: 5d87 b23a 43b7 c1bd a84c 57bd 8869 983d
00000130: 769e 113e 7c36 bf3b ac88 f9bd e3b8 a73b
00000140: 4582 dabc cc70 8ebe fe19 683e 1195 c23d
00000150: 8eab 083d a5a3 0a3f fb5e f73d 50be 49be
00000160: b82b 84be e7e2 7d3e dd0a 29be 86f9 a23e
00000170: 227c e93e 5015 c8bc ca47 c2be 3c4f 293b
00000180: ece6 39bd 128d 433d 2f15 e83c aa34 833e
00000190: 4912 95bd 7be0 12bf 545f 5a3d d501 1bbb
000001a0: 5b17 3ebd 5510 acbe b914 e1bc 49a6 abbe
000001b0: 5992 283e 4cad 233d fc51 01bd bcc9 8f3e
000001c0: 6159 8d3d 1477 96bc a3c4 073f 5ef6 953e
000001d0: f601 abbe 2e30 81bd a75b 7fbd a28d 253e
000001e0: 0393 b33c c1fb 0d3e 0152 693b b39f 03be
000001f0: 5c76 00be 599c a53e a765 033d 49d3 9abe
00000200: 77af 31be febd eb3e 708f 0c3a 865f 26be
00000210: b7a0 82bc 01b5 3dbd 2db8 153c 61cd b1bd
00000220: a001 94be 8a78 893e 50b2 973e 20d4 98bd
00000230: f706 29bf 5a75 3c3e b6c1 1c3e ab04 23bd
00000240: 44be a43e 7eeb 2dbf aa20 b7be d6cc a5bd
00000250: 4a0b 1d3d 7034 81be ba12 ac3b daa0 0d3c
00000260: 283e 6c3e 882e 50be 7179 cfbe 0510 f8bd
00000270: 3cb1 bebe 1a0e 413d 4ee1 f13e e205 27be
00000280: b062 51be c973 10bd a8b4 cbbd be5d dcbc
00000290: 8862 953e 4a56 adbc e500 f33c 2ea3 153d
000002a0: 8882 91bd 0a26 eb3e d0b8 57be 5dc9 1bbd
000002b0: 3235 03bf c06c dcbe a078 1dbc e887 c4be
000002c0: 37fe 26bf 944a 7bbd 7df8 af3e b9a2 76be
000002d0: 4f90 04be 8db3 423e 30b5 65be 2f5c 34be
000002e0: 6330 6ebc 7367 41be ae6c 8e3e 4c1a 91bd
000002f0: f003 c13e 0150 db3a ac74 01bf 9c8d 393e
00000300: 32d2 853e 8e55 a73d d606 553e 783f 78be
00000310: 0cad f1be 97e5 8ebe a0d1 25bd a65a 023d
00000320: 3843 15be b33c 723d 881d 953c 8585 15bb
00000330: 1c9b a6bd 0a62 a53d e956 b43e 6a5c 4a3f
00000340: 2ac1 263c c145 983e 003d 5cbe 9717 ef3c
00000350: 578e 5b3e 4324 10be 84c3 d9be bd7d 3cbe
00000360: b53a 00be 125b 5ebc 0a0c 103e 0c21 d3bc
00000370: 83ce 73bd b9c4 a3bc 69e6 523e fe8d ff3e
00000380: 7f25 aabe 8cbe 463e da72 ee3d 0956 ae3e
00000390: d676 81be 8a27 833e 1aee 4fbd fde5 a83d
000003a0: 9196 41be c2ae 87bc 4a54 35be 6aad f03b
000003b0: e156 f53e a503 cdbe 55b6 63be b184 33bd
000003c0: 05f4 a1bd 25ec 143c b0fb 60be eb1e 91bc
000003d0: 05be ea3d 63f6 48bd bf06 e7be 13d0 16bd
000003e0: 8107 ba3e e130 093f 8f0a e9be ba4d 233d
000003f0: d84e 763e bc50 1d3e 55e1 8e3b 67de 643e

linear2.bias f4 [3]
0.16591111 0.023612807 0.14113079
00000000: 9ae4 293e a56f c13c 9784 103e
